outputs/test/test_checkpoint_20251123_013428_epoch005_loss0.1234.pt (torch, 2720 bytes, 2 tensors)

weight f4 [5, 10]
000000 29 bb 94 3e 26 e6 8d bd c4 af 82 3d ed a6 1d be
       0.29049042 -0.06928663 0.06381181 -0.15395708
000010 1a 2c 3e 3e b9 ba 8e 3e ba 8f 6d be f9 ba 8c 3e
       0.18571511 0.27876833 -0.23199359 0.274864
000020 f0 6b 72 3d 32 3d 6f 3e 48 6b 2f 3d 0c 24 1c 3e
       0.05918497 0.23363188 0.04282692 0.15248126
000030 60 e1 36 bd 4a a0 79 3e c8 73 3f 3d ba 2b 17 be
       -0.044648528 0.24377552 0.046741277 -0.14762774
000040 b8 14 a5 3d c8 31 15 be 60 e6 17 bd 65 85 03 be
       0.080605924 -0.14569771 -0.037084937 -0.12843855
000050 9a cf 56 3e 96 9c 7f be 79 48 15 be 28 e0 b6 bd
       0.20977631 -0.24962077 -0.14578427 -0.08929473
000060 cf b3 42 be c0 80 f4 3c ec e9 9f be 9d 38 92 3e
       -0.19013904 0.029846549 -0.31233156 0.28558818
000070 46 89 89 be ea fe 79 3e b8 8e 57 3d 34 4a d2 bd
       -0.26862544 0.24413648 0.05262634 -0.102680594
000080 56 1a 48 3e 60 de 49 3d f5 d0 82 3e 30 99 0d 3d
       0.19541296 0.04928434 0.25550047 0.03456992
000090 1e 3f cc bd 40 02 ae 3d 0a a0 af bd ea 47 08 3e
       -0.09972976 0.08496523 -0.08575447 0.13308683
0000a0 3b 8e 90 3e 86 2f 3b 3e 62 90 0d be a2 ed 3a 3e
       0.28233513 0.18279848 -0.13824609 0.18254712
0000b0 f0 c1 67 3d 1c 72 24 3e 45 5e 45 be 53 46 a0 be
       0.056581438 0.16059154 -0.19274242 -0.31303653
0000c0 6c 38 fa bd 0e 60 78 be
       -0.12217793 -0.24255392

bias f4 [5]
000000 31 da 84 3e fc 89 ba 3d 26 21 06 3e 58 d2 cc 3d
       0.25947717 0.0910835 0.13098583 0.100010574
000010 80 42 b4 bb
       -0.0055010915
